IS_AP/data/nn1.tflite (tflite, 3768 bytes, 5 tensors)

MLP/dense/MatMul i1 [8, 4] scale=0.007321721 zero_point=0
00000000: 4d81 3a92 eedd 5610 153b 54c8 b42f e929
00000010: e161 e3c7 5f1c 155a 2658 e1ea b936 c24a
0.5637725 -0.92985857 0.42465982 -0.8053893 -0.13179098 -0.25626025 0.629668 0.117147535
0.15375614 0.43198153 0.61502457 -0.41001636 -0.5564508 0.3441209 -0.16839959 0.30019057
-0.22697335 0.7102069 -0.21232991 -0.4173381 0.6955635 0.20500818 0.15375614 0.65895486
0.2782254 0.6443114 -0.22697335 -0.16107786 -0.5198422 0.39537293 -0.4539467 0.54180735

MLP/dense_1/MatMul i1 [8, 8] scale=0.009018272 zero_point=0
00000000: eada ee1f 44bd c2cf 7224 0728 580c e481
00000010: 4416 0620 29c4 fdd1 0ac9 fdf5 c1db fede
00000020: 3c38 0502 2ecd 08e3 4a61 3c24 1d24 09b4
00000030: 2fcd 0fe2 6c2d b5b4 e55c 23f4 02ec f627
-0.19840199 -0.34269434 -0.1623289 0.27956644 0.6132425 -0.6042242 -0.5591329 -0.44189534
1.0280831 0.3246578 0.063127905 0.3607309 0.79360795 0.108219266 -0.25251162 -1.1453205
0.6132425 0.19840199 0.054109633 0.2885847 0.36974916 -0.5410963 -0.027054816 -0.4238588
0.09018272 -0.49600497 -0.027054816 -0.099200994 -0.5681511 -0.33367607 -0.018036544 -0.30662125
0.5410963 0.50502324 0.04509136 0.018036544 0.41484052 -0.45993188 0.07214618 -0.2615299
0.66735214 0.8747724 0.5410963 0.3246578 0.2615299 0.3246578 0.08116445 -0.6853887
0.4238588 -0.45993188 0.13527408 -0.27054816 0.9739734 0.40582225 -0.6763704 -0.6853887
-0.24349335 0.82968104 0.31563953 -0.108219266 0.018036544 -0.18036544 -0.09018272 0.3517126

MLP/dense_2/MatMul i1 [8, 8] scale=0.008332277 zero_point=0
00000000: ff63 ebe4 36dd 7fc1 11d2 eb2a d9d9 be03
00000010: f118 d7dc c6d3 f922 2a6c b1cb 9941 4510
00000020: 4448 d348 ca02 24af 1fe5 fc47 0829 fd49
00000030: bcf9 dec4 e3c0 b7ef 3d1d ec08 44d8 1ce3
-0.008332277 0.8248954 -0.17497781 -0.23330376 0.44994295 -0.29162967 1.0581992 -0.52493346
0.14164871 -0.38328472 -0.17497781 0.34995562 -0.3249588 -0.3249588 -0.5499303 0.02499683
-0.12498415 0.19997464 -0.34162334 -0.29996195 -0.48327205 -0.37495247 -0.05832594 0.28329742
0.34995562 0.8998859 -0.65824986 -0.44161066 -0.8582245 0.54159796 0.5749271 0.13331643
0.56659484 0.5999239 -0.37495247 0.5999239 -0.44994295 0.016664553 0.29996195 -0.6749144
0.25830057 -0.22497147 -0.033329107 0.59159166 0.066658214 0.34162334 -0.02499683 0.6082562
-0.56659484 -0.05832594 -0.28329742 -0.4999366 -0.24163602 -0.5332657 -0.6082562 -0.14164871
0.5082689 0.24163602 -0.16664553 0.066658214 0.56659484 -0.33329105 0.23330376 -0.24163602

MLP/dense_3/MatMul i1 [8, 8] scale=0.0053925607 zero_point=0
00000000: cfc2 61b4 e7a7 1ad7 1beb 207c bd19 63b3
00000010: 542d bc3d 5d4d 63c0 134e 3618 7fe5 4604
00000020: ed99 b68f c709 5a4b 742f 5c5d 4cac 57db
00000030: 2ac8 b7a8 3d01 1ec9 1155 12af c0fe fd15
-0.26423547 -0.33433875 0.5230784 -0.40983462 -0.13481402 -0.4799379 0.14020658 -0.221095
0.14559914 -0.11324377 0.17256194 0.6686775 -0.36130157 0.13481402 0.5338635 -0.41522717
0.4529751 0.24266523 -0.36669412 0.3289462 0.5015082 0.41522717 0.5338635 -0.3451239
0.102458656 0.42061973 0.29119828 0.12942146 0.6848552 -0.14559914 0.37747926 0.021570243
-0.102458656 -0.55543375 -0.3990495 -0.6093594 -0.30737597 0.048533045 0.48533046 0.40444204
0.62553704 0.25345036 0.4961156 0.5015082 0.40983462 -0.4529751 0.46915278 -0.19952475
0.22648755 -0.30198342 -0.39365694 -0.47454536 0.3289462 0.0053925607 0.16177683 -0.29659083
0.09167353 0.45836768 0.09706609 -0.4367974 -0.3451239 -0.0107851215 -0.016177682 0.11324377

MLP/dense_4/MatMul i1 [3, 8] scale=0.0084674815 zero_point=0
00000000: af08 0a44 4a2e 55f8 ec81 3719 2cc0 ac15
00000010: eb2f 4db7 35be 2b0c
-0.685866 0.06773985 0.08467481 0.57578874 0.62659365 0.38950413 0.7197359 -0.06773985
-0.16934963 -1.0753702 0.46571147 0.21168704 0.37256917 -0.5419188 -0.7112684 0.1778171
-0.1778171 0.39797163 0.6519961 -0.61812615 0.4487765 -0.5588538 0.3641017 0.10160978
